…
a":{"colab":{"base_uri":"https://localhost:8080/"},"executionInfo":{"elapsed":10,"status":"ok","timestamp":1701089576244,"user":{"displayName":"2104김우진","userId":"16050301376375125584"},"user_tz":-540},"id":"9aXEFbF47QwD","outputId":"91b449d1-a416-4d21-dfab-9c5dd3d0de74"},"outputs":[{"name":"stdout","output_type":"stream","text":["Model: \"sequential_2\"\n","_________________________________________________________________\n"," Layer (type)                Output Shape              Param #   \n","=================================================================\n"," conv1d_6 (Conv1D)           (None, 99, 128)           384       \n","                                                                 \n"," batch_normalization_6 (Bat  (None, 99, 128)           512       \n"," chNormalization)                                                \n","                                                                 \n"," max_pooling1d_6 (MaxPoolin  (None, 49, 128)           0         \n"," g1D)                                                            \n","                                                                 \n"," conv1d_7 (Conv1D)           (None, 48, 64)            16448     \n","                                                                 \n"," batch_normalization_7 (Bat  (None, 48, 64)            256       \n"," chNormalization)                                                \n","                                                                 \n"," max_pooling1d_7 (MaxPoolin  (None, 24, 64)            0         \n"," g1D)                                                            \n","                                                                 \n"," conv1d_8 (Conv1D)           (None, 23, 64)            8256      \n","                                                                 \n"," batch_normalization_8 (Bat  (None, 23, 64)            256       \n"," chNormalization)                                                \n","                                                                 \n"," max_pooling1d_8 (MaxPoolin  (None, 11, 64)            0         \n"," g1D)                                                            \n","                                                                 \n"," flatten_2 (Flatten)         (None, 704)               0         \n","                                                                 \n"," dense_4 (Dense)             (None, 50)                35250     \n","                                                                 \n"," dense_5 (Dense)             (None, 10)                510       \n","                                                                 \n","=================================================================\n","Total params: 61872 (241.69 KB)\n","Trainable params: 61360 (239.69 KB)\n","Non-trainable params: 512 (2.00 KB)\n","_________________________________________________________________\n"]}],"source":["model1 = Sequential()\n","model1.add(Conv1D(filte
…
adata":{"colab":{"base_uri":"https://localhost:8080/"},"executionInfo":{"elapsed":5311,"status":"ok","timestamp":1701097983789,"user":{"displayName":"이주협","userId":"13392795635946601983"},"user_tz":-540},"id":"vqwAbB-f23kK","outputId":"87218c4b-b7c6-40ae-bc6b-450860756aff"},"outputs":[{"name":"stdout","output_type":"stream","text":["Model: \"sequential\"\n","_________________________________________________________________\n"," Layer (type)                Output Shape              Param #   \n","=================================================================\n"," conv1d (Conv1D)             (None, 99, 128)           384       \n","                                                                 \n"," batch_normalization (Batch  (None, 99, 128)           512       \n"," Normalization)                                                  \n","                                                                 \n"," max_pooling1d (MaxPooling1  (None, 49, 128)           0         \n"," D)                                                              \n","                                                                 \n"," conv1d_1 (Conv1D)           (None, 48, 64)            16448     \n","                                                                 \n"," batch_normalization_1 (Bat  (None, 48, 64)            256       \n"," chNormalization)                                                \n","                                                                 \n"," max_pooling1d_1 (MaxPoolin  (None, 24, 64)            0         \n"," g1D)                                                            \n","                                                                 \n"," conv1d_2 (Conv1D)           (None, 23, 64)            8256      \n","                                                                 \n"," batch_normalization_2 (Bat  (None, 23, 64)            256       \n"," chNormalization)                                                \n","                                                                 \n"," max_pooling1d_2 (MaxPoolin  (None, 11, 64)            0         \n"," g1D)                                                            \n","                                                                 \n"," flatten (Flatten)           (None, 704)               0         \n","                                                                 \n"," dense (Dense)               (None, 256)               180480    \n","                                                                 \n"," dense_1 (Dense)             (None, 128)               32896     \n","                                                                 \n"," dense_2 (Dense)             (None, 128)               16512     \n","                                                                 \n"," dense_3 (Dense)             (None, 64)                8256      \n","                                                                 \n"," dense_4 (Dense)             (None, 32)                2080      \n","                                                                 \n"," dense_5 (Dense)             (None, 10)                330       \n","                                                                 \n","=================================================================\n","Total params: 266666 (1.02 MB)\n","Trainable params: 266154 (1.02 MB)\n","Non-trainable params: 512 (2.00 KB)\n","_________________________________________________________________\n"]}],"source":["model1 = Sequential()\n","model1.add(Conv1D(filters
…
":{"colab":{"base_uri":"https://localhost:8080/"},"executionInfo":{"elapsed":711,"status":"ok","timestamp":1701094380578,"user":{"displayName":"2104김우진","userId":"16050301376375125584"},"user_tz":-540},"id":"tocbT35jGz89","outputId":"8dc4cdf8-8e80-4b3e-e179-f86ad968fbbb"},"outputs":[{"name":"stdout","output_type":"stream","text":["Model: \"sequential_1\"\n","_________________________________________________________________\n"," Layer (type)                Output Shape              Param #   \n","=================================================================\n"," conv1d_4 (Conv1D)           (None, 99, 256)           768       \n","                                                                 \n"," batch_normalization_4 (Bat  (None, 99, 256)           1024      \n"," chNormalization)                                                \n","                                                                 \n"," max_pooling1d_4 (MaxPoolin  (None, 49, 256)           0         \n"," g1D)                                                            \n","                                                                 \n"," conv1d_5 (Conv1D)           (None, 48, 128)           65664     \n","                                                                 \n"," batch_normalization_5 (Bat  (None, 48, 128)           512       \n"," chNormalization)                                                \n","                                                                 \n"," max_pooling1d_5 (MaxPoolin  (None, 24, 128)           0         \n"," g1D)                                                            \n","                                                                 \n"," conv1d_6 (Conv1D)           (None, 23, 64)            16448     \n","                                                                 \n"," batch_normalization_6 (Bat  (None, 23, 64)            256       \n"," chNormalization)                                                \n","                                                                 \n"," max_pooling1d_6 (MaxPoolin  (None, 11, 64)            0         \n"," g1D)                                                            \n","                                                                 \n"," conv1d_7 (Conv1D)           (None, 10, 64)            8256      \n","                                                                 \n"," batch_normalization_7 (Bat  (None, 10, 64)            256       \n"," chNormalization)                                                \n","                                                                 \n"," max_pooling1d_7 (MaxPoolin  (None, 5, 64)             0         \n"," g1D)                                                            \n","                                                                 \n"," flatten_1 (Flatten)         (None, 320)               0         \n","                                                                 \n"," dense_7 (Dense)             (None, 256)               82176     \n","                                                                 \n"," dense_8 (Dense)             (None, 128)               32896     \n","                                                                 \n"," dense_9 (Dense)             (None, 128)               16512     \n","                                                                 \n"," dense_10 (Dense)            (None, 64)                8256      \n","                                                                 \n"," dense_11 (Dense)            (None, 64)                4160      \n","                                                                 \n"," dense_12 (Dense)            (None, 32)                2080      \n","                                                                 \n"," dense_13 (Dense)            (None, 10)                330       \n","                                                                 \n","=================================================================\n","Total params: 239594 (935.91 KB)\n","Trainable params: 238570 (931.91 KB)\n","Non-trainable params: 1024 (4.00 KB)\n","_________________________________________________________________\n"]}],"source":["model3 = Sequential()\n","model3.add(Conv1D(fi
…
adata":{"colab":{"base_uri":"https://localhost:8080/"},"executionInfo":{"elapsed":3980,"status":"ok","timestamp":1701129408721,"user":{"displayName":"이주협","userId":"13392795635946601983"},"user_tz":-540},"id":"9OtHFxjUMAve","outputId":"400d3aba-4630-4362-9b40-5beea2b239ca"},"outputs":[{"name":"stdout","output_type":"stream","text":["Model: \"sequential\"\n","_________________________________________________________________\n"," Layer (type)                Output Shape              Param #   \n","=================================================================\n"," conv1d (Conv1D)             (None, 99, 256)           768       \n","                                                                 \n"," batch_normalization (Batch  (None, 99, 256)           1024      \n"," Normalization)                                                  \n","                                                                 \n"," max_pooling1d (MaxPooling1  (None, 49, 256)           0         \n"," D)                                                              \n","                                                                 \n"," conv1d_1 (Conv1D)           (None, 48, 128)           65664     \n","                                                                 \n"," batch_normalization_1 (Bat  (None, 48, 128)           512       \n"," chNormalization)                                                \n","                                                                 \n"," max_pooling1d_1 (MaxPoolin  (None, 24, 128)           0         \n"," g1D)                                                            \n","                                                                 \n"," conv1d_2 (Conv1D)           (None, 23, 64)            16448     \n","                                                                 \n"," batch_normalization_2 (Bat  (None, 23, 64)            256       \n"," chNormalization)                                                \n","                                                                 \n"," max_pooling1d_2 (MaxPoolin  (None, 11, 64)            0         \n"," g1D)                                                            \n","                                                                 \n"," conv1d_3 (Conv1D)           (None, 10, 64)            8256      \n","                                                                 \n"," batch_normalization_3 (Bat  (None, 10, 64)            256       \n"," chNormalization)                                                \n","                                                                 \n"," max_pooling1d_3 (MaxPoolin  (None, 5, 64)             0         \n"," g1D)                                                            \n","                                                                 \n"," flatten (Flatten)           (None, 320)               0         \n","                                                                 \n"," dense (Dense)               (None, 256)               82176     \n","                                                                 \n"," dense_1 (Dense)             (None, 256)               65792     \n","                                                                 \n"," dense_2 (Dense)             (None, 128)               32896     \n","                                                                 \n"," dense_3 (Dense)             (None, 128)               16512     \n","                                                                 \n"," dense_4 (Dense)             (None, 128)               16512     \n","                                                                 \n"," dense_5 (Dense)             (None, 64)                8256      \n","                                                                 \n"," dense_6 (Dense)             (None, 64)                4160      \n","                                                                 \n"," dense_7 (Dense)             (None, 64)                4160      \n","                                                                 \n"," dense_8 (Dense)             (None, 32)                2080      \n","                                                                 \n"," dense_9 (Dense)             (None, 10)                330       \n","                                                                 \n","=================================================================\n","Total params: 326058 (1.24 MB)\n","Trainable params: 325034 (1.24 MB)\n","Non-trainable params: 1024 (4.00 KB)\n","_________________________________________________________________\n"]}],"source":["model4 = Sequential()\n","model4.add(Conv1D(filter
…
":{"colab":{"base_uri":"https://localhost:8080/"},"executionInfo":{"elapsed":589,"status":"ok","timestamp":1701096299431,"user":{"displayName":"2104김우진","userId":"16050301376375125584"},"user_tz":-540},"id":"OxAIdZTIMvfB","outputId":"c89a4b24-b8dd-4726-b205-9d6e9d80d960"},"outputs":[{"name":"stdout","output_type":"stream","text":["Model: \"sequential_4\"\n","_________________________________________________________________\n"," Layer (type)                Output Shape              Param #   \n","=================================================================\n"," conv1d_16 (Conv1D)          (None, 149, 256)          768       \n","                                                                 \n"," batch_normalization_16 (Ba  (None, 149, 256)          1024      \n"," tchNormalization)                                               \n","                                                                 \n"," max_pooling1d_16 (MaxPooli  (None, 74, 256)           0         \n"," ng1D)                                                           \n","                                                                 \n"," conv1d_17 (Conv1D)          (None, 73, 128)           65664     \n","                                                                 \n"," batch_normalization_17 (Ba  (None, 73, 128)           512       \n"," tchNormalization)                                               \n","                                                                 \n"," max_pooling1d_17 (MaxPooli  (None, 36, 128)           0         \n"," ng1D)                                                           \n","                                                                 \n"," conv1d_18 (Conv1D)          (None, 35, 64)            16448     \n","                                                                 \n"," batch_normalization_18 (Ba  (None, 35, 64)            256       \n"," tchNormalization)                                               \n","                                                                 \n"," max_pooling1d_18 (MaxPooli  (None, 17, 64)            0         \n"," ng1D)                                                           \n","                                                                 \n"," conv1d_19 (Conv1D)          (None, 16, 64)            8256      \n","                                                                 \n"," batch_normalization_19 (Ba  (None, 16, 64)            256       \n"," tchNormalization)                                               \n","                                                                 \n"," max_pooling1d_19 (MaxPooli  (None, 8, 64)             0         \n"," ng1D)                                                           \n","                                                                 \n"," flatten_4 (Flatten)         (None, 512)               0         \n","                                                                 \n"," dense_31 (Dense)            (None, 256)               131328    \n","                                                                 \n"," dense_32 (Dense)            (None, 256)               65792     \n","                                                                 \n"," dense_33 (Dense)            (None, 128)               32896     \n","                                                                 \n"," dense_34 (Dense)            (None, 128)               16512     \n","                                                                 \n"," dense_35 (Dense)            (None, 128)               16512     \n","                                                                 \n"," dense_36 (Dense)            (None, 64)                8256      \n","                                                                 \n"," dense_37 (Dense)            (None, 64)                4160      \n","                                                                 \n"," dense_38 (Dense)            (None, 64)                4160      \n","                                                                 \n"," dense_39 (Dense)            (None, 32)                2080      \n","                                                                 \n"," dense_40 (Dense)            (None, 10)                330       \n","                                                                 \n","=================================================================\n","Total params: 375210 (1.43 MB)\n","Trainable params: 374186 (1.43 MB)\n","Non-trainable params: 1024 (4.00 KB)\n","_________________________________________________________________\n"]}],"source":["model5 = Sequential()\n","model5.add(Conv1D(filter
…
a":{"id":"Hd5Swre0LLAm","colab":{"base_uri":"https://localhost:8080/"},"executionInfo":{"status":"ok","timestamp":1701265664266,"user_tz":-540,"elapsed":3755,"user":{"displayName":"3310이주협","userId":"16158056906600255330"}},"outputId":"f0e45620-1191-4782-fa38-9daa8d65397e"},"outputs":[{"output_type":"stream","name":"stdout","text":["Model: \"sequential\"\n","_________________________________________________________________\n"," Layer (type)                Output Shape              Param #   \n","=================================================================\n"," conv1d (Conv1D)             (None, 99, 256)           768       \n","                                                                 \n"," batch_normalization (Batch  (None, 99, 256)           1024      \n"," Normalization)                                                  \n","                                                                 \n"," max_pooling1d (MaxPooling1  (None, 49, 256)           0         \n"," D)                                                              \n","                                                                 \n"," conv1d_1 (Conv1D)           (None, 48, 128)           65664     \n","                                                                 \n"," batch_normalization_1 (Bat  (None, 48, 128)           512       \n"," chNormalization)                                                \n","                                                                 \n"," max_pooling1d_1 (MaxPoolin  (None, 24, 128)           0         \n"," g1D)                                                            \n","                                                                 \n"," conv1d_2 (Conv1D)           (None, 23, 64)            16448     \n","                                                                 \n"," batch_normalization_2 (Bat  (None, 23, 64)            256       \n"," chNormalization)                                                \n","                                                                 \n"," max_pooling1d_2 (MaxPoolin  (None, 11, 64)            0         \n"," g1D)                                                            \n","                                                                 \n"," conv1d_3 (Conv1D)           (None, 10, 64)            8256      \n","                                                                 \n"," batch_normalization_3 (Bat  (None, 10, 64)            256       \n"," chNormalization)                                                \n","                                                                 \n"," max_pooling1d_3 (MaxPoolin  (None, 5, 64)             0         \n"," g1D)                                                            \n","                                                                 \n"," flatten (Flatten)           (None, 320)               0         \n","                                                                 \n"," dense (Dense)               (None, 256)               82176     \n","                                                                 \n"," dense_1 (Dense)             (None, 256)               65792     \n","                                                                 \n"," dense_2 (Dense)             (None, 128)               32896     \n","                                                                 \n"," dense_3 (Dense)             (None, 128)               16512     \n","                                                                 \n"," dense_4 (Dense)             (None, 128)               16512     \n","                                                                 \n"," dense_5 (Dense)             (None, 64)                8256      \n","                                                                 \n"," dense_6 (Dense)             (None, 64)                4160      \n","                                                                 \n"," dense_7 (Dense)             (None, 64)                4160      \n","                                                                 \n"," dense_8 (Dense)             (None, 32)                2080      \n","                                                                 \n"," dense_9 (Dense)             (None, 10)                330       \n","                                                                 \n"," dense_10 (Dense)            (None, 10)                110       \n","                                                                 \n","=================================================================\n","Total params: 326168 (1.24 MB)\n","Trainable params: 325144 (1.24 MB)\n","Non-trainable params: 1024 (4.00 KB)\n","_________________________________________________________________\n"]}],"source":["model8 = Sequential()\n","model8.add(Conv1D(filter
…
